Found 28709 images belonging to 7 classes.
Found 3589 images belonging to 7 classes.
Model: "sequential"
_________________________________________________________________
 Layer (type)                Output Shape              Param #   
=================================================================
 conv2d (Conv2D)             (None, 46, 46, 32)        320       
                                                                 
 conv2d_1 (Conv2D)           (None, 44, 44, 64)        18496     
                                                                 
 max_pooling2d (MaxPooling2D  (None, 22, 22, 64)       0         
 )                                                               
                                                                 
 dropout (Dropout)           (None, 22, 22, 64)        0         
                                                                 
 conv2d_2 (Conv2D)           (None, 20, 20, 128)       73856     
                                                                 
 max_pooling2d_1 (MaxPooling  (None, 10, 10, 128)      0         
 2D)                                                             
                                                                 
 dropout_1 (Dropout)         (None, 10, 10, 128)       0         
                                                                 
 conv2d_3 (Conv2D)           (None, 8, 8, 256)         295168    
                                                                 
 max_pooling2d_2 (MaxPooling  (None, 4, 4, 256)        0         
 2D)                                                             
                                                                 
 dropout_2 (Dropout)         (None, 4, 4, 256)         0         
                                                                 
 flatten (Flatten)           (None, 4096)              0         
                                                                 
 dense (Dense)               (None, 512)               2097664   
                                                                 
 dropout_3 (Dropout)         (None, 512)               0         
                                                                 
 dense_1 (Dense)             (None, 7)                 3591      
                                                                 
=================================================================
Total params: 2,489,095
Trainable params: 2,489,095
Non-trainable params: 0
_________________________________________________________________
None
28709
3589
Epoch 1/700
2023-03-15 01:08:11.418923: E tensorflow/core/grappler/optimizers/meta_optimizer.cc:954] layout failed: INVALID_ARGUMENT: Size of values 0 does not match size of permutation 4 @ fanin shape insequential/dropout/dropout/SelectV2-2-TransposeNHWCToNCHW-LayoutOptimizer
…
