Found 28709 images belonging to 7 classes.
Found 3589 images belonging to 7 classes.
Model: "sequential_1"
_________________________________________________________________
 Layer (type)                Output Shape              Param #   
=================================================================
 conv2d_4 (Conv2D)           (None, 46, 46, 32)        320       
                                                                 
 conv2d_5 (Conv2D)           (None, 44, 44, 64)        18496     
                                                                 
 max_pooling2d_3 (MaxPooling  (None, 22, 22, 64)       0         
 2D)                                                             
                                                                 
 dropout_4 (Dropout)         (None, 22, 22, 64)        0         
                                                                 
 conv2d_6 (Conv2D)           (None, 20, 20, 128)       73856     
                                                                 
 max_pooling2d_4 (MaxPooling  (None, 10, 10, 128)      0         
 2D)                                                             
                                                                 
 dropout_5 (Dropout)         (None, 10, 10, 128)       0         
                                                                 
 conv2d_7 (Conv2D)           (None, 8, 8, 256)         295168    
                                                                 
 max_pooling2d_5 (MaxPooling  (None, 4, 4, 256)        0         
 2D)                                                             
                                                                 
 dropout_6 (Dropout)         (None, 4, 4, 256)         0         
                                                                 
 flatten_1 (Flatten)         (None, 4096)              0         
                                                                 
 dense_2 (Dense)             (None, 512)               2097664   
                                                                 
 dropout_7 (Dropout)         (None, 512)               0         
                                                                 
 dense_3 (Dense)             (None, 7)                 3591      
                                                                 
=================================================================
Total params: 2,489,095
Trainable params: 2,489,095
Non-trainable params: 0
_________________________________________________________________
None
28709
3589
Epoch 1/70
897/897 [==============================] - 78s 83ms/step - loss: 1.7780 - accuracy: 0.2622 - val_loss: 1.6751 - val_accuracy: 0.3089
…
